{"keras_version": "2.0.6", "config": {"name": "model_1", "input_layers": [["input_1", 0, 0]], "layers": [{"name": "input_1", "config": {"dtype": "float32", "name": "input_1", "batch_input_shape": [null, 256, 256, 3], "sparse": false}, "inbound_nodes": [], "class_name": "InputLayer"}, {"name": "block1_conv1", "config": {"use_bias": false, "kernel_constraint": null, "trainable": true, "padding": "valid", "kernel_size": [3, 3], "name": "block1_conv1", "strides": [2, 2], "activity_regularizer": null, "kernel_regularizer": null, "data_format": "channels_last", "bias_regularizer": null, "filters": 32, "activation": "linear", "bias_constraint": null, "kernel_initializer": {"config": {"scale": 1.0, "mode": "fan_avg", "seed": null, "distribution": "uniform"}, "class_name": "VarianceScaling"}, "bias_initializer": {"config": {}, "class_name": "Zeros"}, "dilation_rate": [1, 1]}, "inbound_nodes": [[["input_1", 0, 0, {}]]], "class_name": "Conv2D"}, {"name": "block1_conv1_bn", "config": {"beta_constraint": null, "gamma_constraint": null, "scale": true, "trainable": true, "momentum": 0.99, "moving_variance_initializer": {"config": {}, "class_name": "Ones"}, "name": "block1_conv1_bn", "axis": -1, "gamma_regularizer": null, "epsilon": 0.001, "gamma_initializer": {"config": {}, "class_name": "Ones"}, "beta_regularizer": null, "center": true, "moving_mean_initializer": {"config": {}, "class_name": "Zeros"}, "beta_initializer": {"config": {}, "class_name": "Zeros"}}, "inbound_nodes": [[["block1_conv1", 0, 0, {}]]], "class_name": "BatchNormalization"}, {"name": "block1_conv1_act", "config": {"name": "block1_conv1_act", "trainable": true, "activation": "relu"}, "inbound_nodes": [[["block1_conv1_bn", 0, 0, {}]]], "class_name": "Activation"}, {"name": "block1_conv2", "config": {"use_bias": false, "kernel_constraint": null, "trainable": true, "padding": "valid", "kernel_size": [3, 3], "name": "block1_conv2", "strides": [1, 1], "activity_regularizer": null, "kernel_regularizer": null, "data_format": "channels_last", "bias_regularizer": null, "filters": 64, "activation": "linear", "bias_constraint": null, "kernel_initializer": {"config": {"scale": 1.0, "mode": "fan_avg", "seed": null, "distribution": "uniform"}, "class_name": "VarianceScaling"}, "bias_initializer": {"config": {}, "class_name": "Zeros"}, "dilation_rate": [1, 1]}, "inbound_nodes": [[["block1_conv1_act", 0, 0, {}]]], "class_name": "Conv2D"}, {"name": "block1_conv2_bn", "config": {"beta_constraint": null, "gamma_constraint": null, "scale": true, "trainable": true, "momentum": 0.99, "moving_variance_initializer": {"config": {}, "class_name": "Ones"}, "name": "block1_conv2_bn", "axis": -1, "gamma_regularizer": null, "epsilon": 0.001, "gamma_initializer": {"config": {}, "class_name": "Ones"}, "beta_regularizer": null, "center": true, "moving_mean_initializer": {"config": {}, "class_name": "Zeros"}, "beta_initializer": {"config": {}, "class_name": "Zeros"}}, "inbound_nodes": [[["block1_conv2", 0, 0, {}]]], "class_name": "BatchNormalization"}, {"name": "block1_conv2_act", "config": {"name": "block1_conv2_act", "trainable": true, "activation": "relu"}, "inbound_nodes": [[["block1_conv2_bn", 0, 0, {}]]], "class_name": "Activation"}, {"name": "block2_sepconv1", "config": {"use_bias": false, "padding": "same", "trainable": true, "depthwise_initializer": {"config": {"scale": 1.0, "mode": "fan_avg", "seed": null, "distribution": "uniform"}, "class_name": "VarianceScaling"}, "strides": [1, 1], "kernel_size": [3, 3], "depthwise_regularizer": null, "depth_multiplier": 1, "activity_regularizer": null, "pointwise_regularizer": null, "data_format": "channels_last", "bias_regularizer": null, "filters": 128, "pointwise_initializer": {"config": {"scale": 1.0, "mode": "fan_avg", "seed": null, "distribution": "uniform"}, "class_name": "VarianceScaling"}, "bias_constraint": null, "name": "block2_sepconv1", "pointwise_constraint": null, "activation": "linear", "bias_initializer": {"config": {}, "class_name": "Zeros"}, "depthwise_constraint": null, "dilation_rate": [1, 1]}, "inbound_nodes": [[["block1_conv2_act", 0, 0, {}]]], "class_name": "SeparableConv2D"}, {"name": "block2_sepconv1_bn", "config": {"beta_constraint": null, "gamma_constraint": null, "scale": true, "trainable": true, "momentum": 0.99, "moving_variance_initializer": {"config": {}, "class_name": "Ones"}, "name": "block2_sepconv1_bn", "axis": -1, "gamma_regularizer": null, "epsilon": 0.001, "gamma_initializer": {"config": {}, "class_name": "Ones"}, "beta_regularizer": null, "center": true, "moving_mean_initializer": {"config": {}, "class_name": "Zeros"}, "beta_initializer": {"config": {}, "class_name": "Zeros"}}, "inbound_nodes": [[["block2_sepconv1", 0, 0, {}]]], "class_name": "BatchNormalization"}, {"name": "block2_sepconv2_act", "config": {"name": "block2_sepconv2_act", "trainable": true, "activation": "relu"}, "inbound_nodes": [[["block2_sepconv1_bn", 0, 0, {}]]], "class_name": "Activation"}, {"name": "block2_sepconv2", "config": {"use_bias": false, "padding": "same", "trainable": true, "depthwise_initializer": {"config": {"scale": 1.0, "mode": "fan_avg", "seed": null, "distribution": "uniform"}, "class_name": "VarianceScaling"}, "strides": [1, 1], "kernel_size": [3, 3], "depthwise_regularizer": null, "depth_multiplier": 1, "activity_regularizer": null, "pointwise_regularizer": null, "data_format": "channels_last", "bias_regularizer": null, "filters": 128, "pointwise_initializer": {"config": {"scale": 1.0, "mode": "fan_avg", "seed": null, "distribution": "uniform"}, "class_name": "VarianceScaling"}, "bias_constraint": null, "name": "block2_sepconv2", "pointwise_constraint": null, "activation": "linear", "bias_initializer": {"config": {}, "class_name": "Zeros"}, "depthwise_constraint": null, "dilation_rate": [1, 1]}, "inbound_nodes": [[["block2_sepconv2_act", 0, 0, {}]]], "class_name": "SeparableConv2D"}, {"name": "block2_sepconv2_bn", "config": {"beta_constraint": null, "gamma_constraint": null, "scale": true, "trainable": true, "momentum": 0.99, "moving_variance_initializer": {"config": {}, "class_name": "Ones"}, "name": "block2_sepconv2_bn", "axis": -1, "gamma_regularizer": null, "epsilon": 0.001, "gamma_initializer": {"config": {}, "class_name": "Ones"}, "beta_regularizer": null, "center": true, "moving_mean_initializer": {"config": {}, "class_name": "Zeros"}, "beta_initializer": {"config": {}, "class_name": "Zeros"}}, "inbound_nodes": [[["block2_sepconv2", 0, 0, {}]]], "class_name": "BatchNormalization"}, {"name": "conv2d_1", "config": {"use_bias": false, "kernel_constraint": null, "trainable": true, "padding": "same", "kernel_size": [1, 1], "name": "conv2d_1", "strides": [2, 2], "activity_regularizer": null, "kernel_regularizer": null, "data_format": "channels_last", "bias_regularizer": null, "filters": 128, "activation": "linear", "bias_constraint": null, "kernel_initializer": {"config": {"scale": 1.0, "mode": "fan_avg", "seed": null, "distribution": "uniform"}, "class_name": "VarianceScaling"}, "bias_initializer": {"config": {}, "class_name": "Zeros"}, "dilation_rate": [1, 1]}, "inbound_nodes": [[["block1_conv2_act", 0, 0, {}]]], "class_name": "Conv2D"}, {"name": "block2_pool", "config": {"data_format": "channels_last", "padding": "same", "trainable": true, "strides": [2, 2], "name": "block2_pool", "pool_size": [3, 3]}, "inbound_nodes": [[["block2_sepconv2_bn", 0, 0, {}]]], "class_name": "MaxPooling2D"}, {"name": "batch_normalization_1", "config": {"beta_constraint": null, "gamma_constraint": null, "scale": true, "trainable": true, "momentum": 0.99, "moving_variance_initializer": {"config": {}, "class_name": "Ones"}, "name": "batch_normalization_1", "axis": -1, "gamma_regularizer": null, "epsilon": 0.001, "gamma_initializer": {"config": {}, "class_name": "Ones"}, "beta_regularizer": null, "center": true, "moving_mean_initializer": {"config": {}, "class_name": "Zeros"}, "beta_initializer": {"config": {}, "class_name": "Zeros"}}, "inbound_nodes": [[["conv2d_1", 0, 0, {}]]], "class_name": "BatchNormalization"}, {"name": "add_1", "config": {"name": "add_1", "trainable": true}, "inbound_nodes": [[["block2_pool", 0, 0, {}], ["batch_normalization_1", 0, 0, {}]]], "class_name": "Add"}, {"name": "block3_sepconv1_act", "config": {"name": "block3_sepconv1_act", "trainable": true, "activation": "relu"}, "inbound_nodes": [[["add_1", 0, 0, {}]]], "class_name": "Activation"}, {"name": "block3_sepconv1", "config": {"use_bias": false, "padding": "same", "trainable": true, "depthwise_initializer": {"config": {"scale": 1.0, "mode": "fan_avg", "seed": null, "distribution": "uniform"}, "class_name": "VarianceScaling"}, "strides": [1, 1], "kernel_size": [3, 3], "depthwise_regularizer": null, "depth_multiplier": 1, "activity_regularizer": null, "pointwise_regularizer": null, "data_format": "channels_last", "bias_regularizer": null, "filters": 256, "pointwise_initializer": {"config": {"scale": 1.0, "mode": "fan_avg", "seed": null, "distribution": "uniform"}, "class_name": "VarianceScaling"}, "bias_constraint": null, "name": "block3_sepconv1", "pointwise_constraint": null, "activation": "linear", "bias_initializer": {"config": {}, "class_name": "Zeros"}, "depthwise_constraint": null, "dilation_rate": [1, 1]}, "inbound_nodes": [[["block3_sepconv1_act", 0, 0, {}]]], "class_name": "SeparableConv2D"}, {"name": "block3_sepconv1_bn", "config": {"beta_constraint": null, "gamma_constraint": null, "scale": true, "trainable": true, "momentum": 0.99, "moving_variance_initializer": {"config": {}, "class_name": "Ones"}, "name": "block3_sepconv1_bn", "axis": -1, "gamma_regularizer": null, "epsilon": 0.001, "gamma_initializer": {"config": {}, "class_name": "Ones"}, "beta_regularizer": null, "center": true, "moving_mean_initializer": {"config": {}, "class_name": "Zeros"}, "beta_initializer": {"config": {}, "class_name": "Zeros"}}, "inbound_nodes": [[["block3_sepconv1", 0, 0, {}]]], "class_name": "BatchNormalization"}, {"name": "block3_sepconv2_act", "config": {"name": "block3_sepconv2_act", "trainable": true, "activation": "relu"}, "inbound_nodes": [[["block3_sepconv1_bn", 0, 0, {}]]], "class_name": "Activation"}, {"name": "block3_sepconv2", "config": {"use_bias": false, "padding": "same", "trainable": true, "depthwise_initializer": {"config": {"scale": 1.0, "mode": "fan_avg", "seed": null, "distribution": "uniform"}, "class_name": "VarianceScaling"}, "strides": [1, 1], "kernel_size": [3, 3], "depthwise_regularizer": null, "depth_multiplier": 1, "activity_regularizer": null, "pointwise_regularizer": null, "data_format": "channels_last", "bias_regularizer": null, "filters": 256, "pointwise_initializer": {"config": {"scale": 1.0, "mode": "fan_avg", "seed": null, "distribution": "uniform"}, "class_name": "VarianceScaling"}, "bias_constraint": null, "name": "block3_sepconv2", "pointwise_constraint": null, "activation": "linear", "bias_initializer": {"config": {}, "class_name": "Zeros"}, "depthwise_constraint": null, "dilation_rate": [1, 1]}, "inbound_nodes": [[["block3_sepconv2_act", 0, 0, {}]]], "class_name": "SeparableConv2D"}, {"name": "block3_sepconv2_bn", "config": {"beta_constraint": null, "gamma_constraint": null, "scale": true, "trainable": true, "momentum": 0.99, "moving_variance_initializer": {"config": {}, "class_name": "Ones"}, "name": "block3_sepconv2_bn", "axis": -1, "gamma_regularizer": null, "epsilon": 0.001, "gamma_initializer": {"config": {}, "class_name": "Ones"}, "beta_regularizer": null, "center": true, "moving_mean_initializer": {"config": {}, "class_name": "Zeros"}, "beta_initializer": {"config": {}, "class_name": "Zeros"}}, "inbound_nodes": [[["block3_sepconv2", 0, 0, {}]]], "class_name": "BatchNormalization"}, {"name": "conv2d_2", "config": {"use_bias": false, "kernel_constraint": null, "trainable": true, "padding": "same", "kernel_size": [1, 1], "name": "conv2d_2", "strides": [2, 2], "activity_regularizer": null, "kernel_regularizer": null, "data_format": "channels_last", "bias_regularizer": null, "filters": 256, "activation": "linear", "bias_constraint": null, "kernel_initializer": {"config": {"scale": 1.0, "mode": "fan_avg", "seed": null, "distribution": "uniform"}, "class_name": "VarianceScaling"}, "bias_initializer": {"config": {}, "class_name": "Zeros"}, "dilation_rate": [1, 1]}, "inbound_nodes": [[["add_1", 0, 0, {}]]], "class_name": "Conv2D"}, {"name": "block3_pool", "config": {"data_format": "channels_last", "padding": "same", "trainable": true, "strides": [2, 2], "name": "block3_pool", "pool_size": [3, 3]}, "inbound_nodes": [[["block3_sepconv2_bn", 0, 0, {}]]], "class_name": "MaxPooling2D"}, {"name": "batch_normalization_2", "config": {"beta_constraint": null, "gamma_constraint": null, "scale": true, "trainable": true, "momentum": 0.99, "moving_variance_initializer": {"config": {}, "class_name": "Ones"}, "name": "batch_normalization_2", "axis": -1, "gamma_regularizer": null, "epsilon": 0.001, "gamma_initializer": {"config": {}, "class_name": "Ones"}, "beta_regularizer": null, "center": true, "moving_mean_initializer": {"config": {}, "class_name": "Zeros"}, "beta_initializer": {"config": {}, "class_name": "Zeros"}}, "inbound_nodes": [[["conv2d_2", 0, 0, {}]]], "class_name": "BatchNormalization"}, {"name": "add_2", "config": {"name": "add_2", "trainable": true}, "inbound_nodes": [[["block3_pool", 0, 0, {}], ["batch_normalization_2", 0, 0, {}]]], "class_name": "Add"}, {"name": "block4_sepconv1_act", "config": {"name": "block4_sepconv1_act", "trainable": true, "activation": "relu"}, "inbound_nodes": [[["add_2", 0, 0, {}]]], "class_name": "Activation"}, {"name": "block4_sepconv1", "config": {"use_bias": false, "padding": "same", "trainable": true, "depthwise_initializer": {"config": {"scale": 1.0, "mode": "fan_avg", "seed": null, "distribution": "uniform"}, "class_name": "VarianceScaling"}, "strides": [1, 1], "kernel_size": [3, 3], "depthwise_regularizer": null, "depth_multiplier": 1, "activity_regularizer": null, "pointwise_regularizer": null, "data_format": "channels_last", "bias_regularizer": null, "filters": 728, "pointwise_initializer": {"config": {"scale": 1.0, "mode": "fan_avg", "seed": null, "distribution": "uniform"}, "class_name": "VarianceScaling"}, "bias_constraint": null, "name": "block4_sepconv1", "pointwise_constraint": null, "activation": "linear", "bias_initializer": {"config": {}, "class_name": "Zeros"}, "depthwise_constraint": null, "dilation_rate": [1, 1]}, "inbound_nodes": [[["block4_sepconv1_act", 0, 0, {}]]], "class_name": "SeparableConv2D"}, {"name": "block4_sepconv1_bn", "config": {"beta_constraint": null, "gamma_constraint": null, "scale": true, "trainable": true, "momentum": 0.99, "moving_variance_initializer": {"config": {}, "class_name": "Ones"}, "name": "block4_sepconv1_bn", "axis": -1, "gamma_regularizer": null, "epsilon": 0.001, "gamma_initializer": {"config": {}, "class_name": "Ones"}, "beta_regularizer": null, "center": true, "moving_mean_initializer": {"config": {}, "class_name": "Zeros"}, "beta_initializer": {"config": {}, "class_name": "Zeros"}}, "inbound_nodes": [[["block4_sepconv1", 0, 0, {}]]], "class_name": "BatchNormalization"}, {"name": "block4_sepconv2_act", "config": {"name": "block4_sepconv2_act", "trainable": true, "activation": "relu"}, "inbound_nodes": [[["block4_sepconv1_bn", 0, 0, {}]]], "class_name": "Activation"}, {"name": "block4_sepconv2", "config": {"use_bias": false, "padding": "same", "trainable": true, "depthwise_initializer": {"config": {"scale": 1.0, "mode": "fan_avg", "seed": null, "distribution": "uniform"}, "class_name": "VarianceScaling"}, "strides": [1, 1], "kernel_size": [3, 3], "depthwise_regularizer": null, "depth_multiplier": 1, "activity_regularizer": null, "pointwise_regularizer": null, "data_format": "channels_last", "bias_regularizer": null, "filters": 728, "pointwise_initializer": {"config": {"scale": 1.0, "mode": "fan_avg", "seed": null, "distribution": "uniform"}, "class_name": "VarianceScaling"}, "bias_constraint": null, "name": "block4_sepconv2", "pointwise_constraint": null, "activation": "linear", "bias_initializer": {"config": {}, "class_name": "Zeros"}, "depthwise_constraint": null, "dilation_rate": [1, 1]}, "inbound_nodes": [[["block4_sepconv2_act", 0, 0, {}]]], "class_name": "SeparableConv2D"}, {"name": "block4_sepconv2_bn", "config": {"beta_constraint": null, "gamma_constraint": null, "scale": true, "trainable": true, "momentum": 0.99, "moving_variance_initializer": {"config": {}, "class_name": "Ones"}, "name": "block4_sepconv2_bn", "axis": -1, "gamma_regularizer": null, "epsilon": 0.001, "gamma_initializer": {"config": {}, "class_name": "Ones"}, "beta_regularizer": null, "center": true, "moving_mean_initializer": {"config": {}, "class_name": "Zeros"}, "beta_initializer": {"config": {}, "class_name": "Zeros"}}, "inbound_nodes": [[["block4_sepconv2", 0, 0, {}]]], "class_name": "BatchNormalization"}, {"name": "conv2d_3", "config": {"use_bias": false, "kernel_constraint": null, "trainable": true, "padding": "same", "kernel_size": [1, 1], "name": "conv2d_3", "strides": [2, 2], "activity_regularizer": null, "kernel_regularizer": null, "data_format": "channels_last", "bias_regularizer": null, "filters": 728, "activation": "linear", "bias_constraint": null, "kernel_initializer": {"config": {"scale": 1.0, "mode": "fan_avg", "seed": null, "distribution": "uniform"}, "class_name": "VarianceScaling"}, "bias_initializer": {"config": {}, "class_name": "Zeros"}, "dilation_rate": [1, 1]}, "inbound_nodes": [[["add_2", 0, 0, {}]]], "class_name": "Conv2D"}, {"name": "block4_pool", "config": {"data_format": "channels_last", "padding": "same", "trainable": true, "strides": [2, 2], "name": "block4_pool", "pool_size": [3, 3]}, "inbound_nodes": [[["block4_sepconv2_bn", 0, 0, {}]]], "class_name": "MaxPooling2D"}, {"name": "batch_normalization_3", "config": {"beta_constraint": null, "gamma_constraint": null, "scale": true, "trainable": true, "momentum": 0.99, "moving_variance_initializer": {"config": {}, "class_name": "Ones"}, "name": "batch_normalization_3", "axis": -1, "gamma_regularizer": null, "epsilon": 0.001, "gamma_initializer": {"config": {}, "class_name": "Ones"}, "beta_regularizer": null, "center": true, "moving_mean_initializer": {"config": {}, "class_name": "Zeros"}, "beta_initializer": {"config": {}, "class_name": "Zeros"}}, "inbound_nodes": [[["conv2d_3", 0, 0, {}]]], "class_name": "BatchNormalization"}, {"name": "add_3", "config": {"name": "add_3", "trainable": true}, "inbound_nodes": [[["block4_pool", 0, 0, {}], ["batch_normalization_3", 0, 0, {}]]], "class_name": "Add"}, {"name": "block5_sepconv1_act", "config": {"name": "block5_sepconv1_act", "trainable": true, "activation": "relu"}, "inbound_nodes": [[["add_3", 0, 0, {}]]], "class_name": "Activation"}, {"name": "block5_sepconv1", "config": {"use_bias": false, "padding": "same", "trainable": true, "depthwise_initializer": {"config": {"scale": 1.0, "mode": "fan_avg", "seed": null, "distribution": "uniform"}, "class_name": "VarianceScaling"}, "strides": [1, 1], "kernel_size": [3, 3], "depthwise_regularizer": null, "depth_multiplier": 1, "activity_regularizer": null, "pointwise_regularizer": null, "data_format": "channels_last", "bias_regularizer": null, "filters": 728, "pointwise_initializer": {"config": {"scale": 1.0, "mode": "fan_avg", "seed": null, "distribution": "uniform"}, "class_name": "VarianceScaling"}, "bias_constraint": null, "name": "block5_sepconv1", "pointwise_constraint": null, "activation": "linear", "bias_initializer": {"config": {}, "class_name": "Zeros"}, "depthwise_constraint": null, "dilation_rate": [1, 1]}, "inbound_nodes": [[["block5_sepconv1_act", 0, 0, {}]]], "class_name": "SeparableConv2D"}, {"name": "block5_sepconv1_bn", "config": {"beta_constraint": null, "gamma_constraint": null, "scale": true, "trainable": true, "momentum": 0.99, "moving_variance_initializer": {"config": {}, "class_name": "Ones"}, "name": "block5_sepconv1_bn", "axis": -1, "gamma_regularizer": null, "epsilon": 0.001, "gamma_initializer": {"config": {}, "class_name": "Ones"}, "beta_regularizer": null, "center": true, "moving_mean_initializer": {"config": {}, "class_name": "Zeros"}, "beta_initializer": {"config": {}, "class_name": "Zeros"}}, "inbound_nodes": [[["block5_sepconv1", 0, 0, {}]]], "class_name": "BatchNormalization"}, {"name": "block5_sepconv2_act", "config": {"name": "block5_sepconv2_act", "trainable": true, "activation": "relu"}, "inbound_nodes": [[["block5_sepconv1_bn", 0, 0, {}]]], "class_name": "Activation"}, {"name": "block5_sepconv2", "config": {"use_bias": false, "padding": "same", "trainable": true, "depthwise_initializer": {"config": {"scale": 1.0, "mode": "fan_avg", "seed": null, "distribution": "uniform"}, "class_name": "VarianceScaling"}, "strides": [1, 1], "kernel_size": [3, 3], "depthwise_regularizer": null, "depth_multiplier": 1, "activity_regularizer": null, "pointwise_regularizer": null, "data_format": "channels_last", "bias_regularizer": null, "filters": 728, "pointwise_initializer": {"config": {"scale": 1.0, "mode": "fan_avg", "seed": null, "distribution": "uniform"}, "class_name": "VarianceScaling"}, "bias_constraint": null, "name": "block5_sepconv2", "pointwise_constraint": null, "activation": "linear", "bias_initializer": {"config": {}, "class_name": "Zeros"}, "depthwise_constraint": null, "dilation_rate": [1, 1]}, "inbound_nodes": [[["block5_sepconv2_act", 0, 0, {}]]], "class_name": "SeparableConv2D"}, {"name": "block5_sepconv2_bn", "config": {"beta_constraint": null, "gamma_constraint": null, "scale": true, "trainable": true, "momentum": 0.99, "moving_variance_initializer": {"config": {}, "class_name": "Ones"}, "name": "block5_sepconv2_bn", "axis": -1, "gamma_regularizer": null, "epsilon": 0.001, "gamma_initializer": {"config": {}, "class_name": "Ones"}, "beta_regularizer": null, "center": true, "moving_mean_initializer": {"config": {}, "class_name": "Zeros"}, "beta_initializer": {"config": {}, "class_name": "Zeros"}}, "inbound_nodes": [[["block5_sepconv2", 0, 0, {}]]], "class_name": "BatchNormalization"}, {"name": "block5_sepconv3_act", "config": {"name": "block5_sepconv3_act", "trainable": true, "activation": "relu"}, "inbound_nodes": [[["block5_sepconv2_bn", 0, 0, {}]]], "class_name": "Activation"}, {"name": "block5_sepconv3", "config": {"use_bias": false, "padding": "same", "trainable": true, "depthwise_initializer": {"config": {"scale": 1.0, "mode": "fan_avg", "seed": null, "distribution": "uniform"}, "class_name": "VarianceScaling"}, "strides": [1, 1], "kernel_size": [3, 3], "depthwise_regularizer": null, "depth_multiplier": 1, "activity_regularizer": null, "pointwise_regularizer": null, "data_format": "channels_last", "bias_regularizer": null, "filters": 728, "pointwise_initializer": {"config": {"scale": 1.0, "mode": "fan_avg", "seed": null, "distribution": "uniform"}, "class_name": "VarianceScaling"}, "bias_constraint": null, "name": "block5_sepconv3", "pointwise_constraint": null, "activation": "linear", "bias_initializer": {"config": {}, "class_name": "Zeros"}, "depthwise_constraint": null, "dilation_rate": [1, 1]}, "inbound_nodes": [[["block5_sepconv3_act", 0, 0, {}]]], "class_name": "SeparableConv2D"}, {"name": "block5_sepconv3_bn", "config": {"beta_constraint": null, "gamma_constraint": null, "scale": true, "trainable": true, "momentum": 0.99, "moving_variance_initializer": {"config": {}, "class_name": "Ones"}, "name": "block5_sepconv3_bn", "axis": -1, "gamma_regularizer": null, "epsilon": 0.001, "gamma_initializer": {"config": {}, "class_name": "Ones"}, "beta_regularizer": null, "center": true, "moving_mean_initializer": {"config": {}, "class_name": "Zeros"}, "beta_initializer": {"config": {}, "class_name": "Zeros"}}, "inbound_nodes": [[["block5_sepconv3", 0, 0, {}]]], "class_name": "BatchNormalization"}, {"name": "add_4", "config": {"name": "add_4", "trainable": true}, "inbound_nodes": [[["block5_sepconv3_bn", 0, 0, {}], ["add_3", 0, 0, {}]]], "class_name": "Add"}, {"name": "block6_sepconv1_act", "config": {"name": "block6_sepconv1_act", "trainable": true, "activation": "relu"}, "inbound_nodes": [[["add_4", 0, 0, {}]]], "class_name": "Activation"}, {"name": "block6_sepconv1", "config": {"use_bias": false, "padding": "same", "trainable": true, "depthwise_initializer": {"config": {"scale": 1.0, "mode": "fan_avg", "seed": null, "distribution": "uniform"}, "class_name": "VarianceScaling"}, "strides": [1, 1], "kernel_size": [3, 3], "depthwise_regularizer": null, "depth_multiplier": 1, "activity_regularizer": null, "pointwise_regularizer": null, "data_format": "channels_last", "bias_regularizer": null, "filters": 728, "pointwise_initializer": {"config": {"scale": 1.0, "mode": "fan_avg", "seed": null, "distribution": "uniform"}, "class_name": "VarianceScaling"}, "bias_constraint": null, "name": "block6_sepconv1", "pointwise_constraint": null, "activation": "linear", "bias_initializer": {"config": {}, "class_name": "Zeros"}, "depthwise_constraint": null, "dilation_rate": [1, 1]}, "inbound_nodes": [[["block6_sepconv1_act", 0, 0, {}]]], "class_name": "SeparableConv2D"}, {"name": "block6_sepconv1_bn", "config": {"beta_constraint": null, "gamma_constraint": null, "scale": true, "trainable": true, "momentum": 0.99, "moving_variance_initializer": {"config": {}, "class_name": "Ones"}, "name": "block6_sepconv1_bn", "axis": -1, "gamma_regularizer": null, "epsilon": 0.001, "gamma_initializer": {"config": {}, "class_name": "Ones"}, "beta_regularizer": null, "center": true, "moving_mean_initializer": {"config": {}, "class_name": "Zeros"}, "beta_initializer": {"config": {}, "class_name": "Zeros"}}, "inbound_nodes": [[["block6_sepconv1", 0, 0, {}]]], "class_name": "BatchNormalization"}, {"name": "block6_sepconv2_act", "config": {"name": "block6_sepconv2_act", "trainable": true, "activation": "relu"}, "inbound_nodes": [[["block6_sepconv1_bn", 0, 0, {}]]], "class_name": "Activation"}, {"name": "block6_sepconv2", "config": {"use_bias": false, "padding": "same", "trainable": true, "depthwise_initializer": {"config": {"scale": 1.0, "mode": "fan_avg", "seed": null, "distribution": "uniform"}, "class_name": "VarianceScaling"}, "strides": [1, 1], "kernel_size": [3, 3], "depthwise_regularizer": null, "depth_multiplier": 1, "activity_regularizer": null, "pointwise_regularizer": null, "data_format": "channels_last", "bias_regularizer": null, "filters": 728, "pointwise_initializer": {"config": {"scale": 1.0, "mode": "fan_avg", "seed": null, "distribution": "uniform"}, "class_name": "VarianceScaling"}, "bias_constraint": null, "name": "block6_sepconv2", "pointwise_constraint": null, "activation": "linear", "bias_initializer": {"config": {}, "class_name": "Zeros"}, "depthwise_constraint": null, "dilation_rate": [1, 1]}, "inbound_nodes": [[["block6_sepconv2_act", 0, 0, {}]]], "class_name": "SeparableConv2D"}, {"name": "block6_sepconv2_bn", "config": {"beta_constraint": null, "gamma_constraint": null, "scale": true, "trainable": true, "momentum": 0.99, "moving_variance_initializer": {"config": {}, "class_name": "Ones"}, "name": "block6_sepconv2_bn", "axis": -1, "gamma_regularizer": null, "epsilon": 0.001, "gamma_initializer": {"config": {}, "class_name": "Ones"}, "beta_regularizer": null, "center": true, "moving_mean_initializer": {"config": {}, "class_name": "Zeros"}, "beta_initializer": {"config": {}, "class_name": "Zeros"}}, "inbound_nodes": [[["block6_sepconv2", 0, 0, {}]]], "class_name": "BatchNormalization"}, {"name": "block6_sepconv3_act", "config": {"name": "block6_sepconv3_act", "trainable": true, "activation": "relu"}, "inbound_nodes": [[["block6_sepconv2_bn", 0, 0, {}]]], "class_name": "Activation"}, {"name": "block6_sepconv3", "config": {"use_bias": false, "padding": "same", "trainable": true, "depthwise_initializer": {"config": {"scale": 1.0, "mode": "fan_avg", "seed": null, "distribution": "uniform"}, "class_name": "VarianceScaling"}, "strides": [1, 1], "kernel_size": [3, 3], "depthwise_regularizer": null, "depth_multiplier": 1, "activity_regularizer": null, "pointwise_regularizer": null, "data_format": "channels_last", "bias_regularizer": null, "filters": 728, "pointwise_initializer": {"config": {"scale": 1.0, "mode": "fan_avg", "seed": null, "distribution": "uniform"}, "class_name": "VarianceScaling"}, "bias_constraint": null, "name": "block6_sepconv3", "pointwise_constraint": null, "activation": "linear", "bias_initializer": {"config": {}, "class_name": "Zeros"}, "depthwise_constraint": null, "dilation_rate": [1, 1]}, "inbound_nodes": [[["block6_sepconv3_act", 0, 0, {}]]], "class_name": "SeparableConv2D"}, {"name": "block6_sepconv3_bn", "config": {"beta_constraint": null, "gamma_constraint": null, "scale": true, "trainable": true, "momentum": 0.99, "moving_variance_initializer": {"config": {}, "class_name": "Ones"}, "name": "block6_sepconv3_bn", "axis": -1, "gamma_regularizer": null, "epsilon": 0.001, "gamma_initializer": {"config": {}, "class_name": "Ones"}, "beta_regularizer": null, "center": true, "moving_mean_initializer": {"config": {}, "class_name": "Zeros"}, "beta_initializer": {"config": {}, "class_name": "Zeros"}}, "inbound_nodes": [[["block6_sepconv3", 0, 0, {}]]], "class_name": "BatchNormalization"}, {"name": "add_5", "config": {"name": "add_5", "trainable": true}, "inbound_nodes": [[["block6_sepconv3_bn", 0, 0, {}], ["add_4", 0, 0, {}]]], "class_name": "Add"}, {"name": "block7_sepconv1_act", "config": {"name": "block7_sepconv1_act", "trainable": true, "activation": "relu"}, "inbound_nodes": [[["add_5", 0, 0, {}]]], "class_name": "Activation"}, {"name": "block7_sepconv1", "config": {"use_bias": false, "padding": "same", "trainable": true, "depthwise_initializer": {"config": {"scale": 1.0, "mode": "fan_avg", "seed": null, "distribution": "uniform"}, "class_name": "VarianceScaling"}, "strides": [1, 1], "kernel_size": [3, 3], "depthwise_regularizer": null, "depth_multiplier": 1, "activity_regularizer": null, "pointwise_regularizer": null, "data_format": "channels_last", "bias_regularizer": null, "filters": 728, "pointwise_initializer": {"config": {"scale": 1.0, "mode": "fan_avg", "seed": null, "distribution": "uniform"}, "class_name": "VarianceScaling"}, "bias_constraint": null, "name": "block7_sepconv1", "pointwise_constraint": null, "activation": "linear", "bias_initializer": {"config": {}, "class_name": "Zeros"}, "depthwise_constraint": null, "dilation_rate": [1, 1]}, "inbound_nodes": [[["block7_sepconv1_act", 0, 0, {}]]], "class_name": "SeparableConv2D"}, {"name": "block7_sepconv1_bn", "config": {"beta_constraint": null, "gamma_constraint": null, "scale": true, "trainable": true, "momentum": 0.99, "moving_variance_initializer": {"config": {}, "class_name": "Ones"}, "name": "block7_sepconv1_bn", "axis": -1, "gamma_regularizer": null, "epsilon": 0.001, "gamma_initializer": {"config": {}, "class_name": "Ones"}, "beta_regularizer": null, "center": true, "moving_mean_initializer": {"config": {}, "class_name": "Zeros"}, "beta_initializer": {"config": {}, "class_name": "Zeros"}}, "inbound_nodes": [[["block7_sepconv1", 0, 0, {}]]], "class_name": "BatchNormalization"}, {"name": "block7_sepconv2_act", "config": {"name": "block7_sepconv2_act", "trainable": true, "activation": "relu"}, "inbound_nodes": [[["block7_sepconv1_bn", 0, 0, {}]]], "class_name": "Activation"}, {"name": "block7_sepconv2", "config": {"use_bias": false, "padding": "same", "trainable": true, "depthwise_initializer": {"config": {"scale": 1.0, "mode": "fan_avg", "seed": null, "distribution": "uniform"}, "class_name": "VarianceScaling"}, "strides": [1, 1], "kernel_size": [3, 3], "depthwise_regularizer": null, "depth_multiplier": 1, "activity_regularizer": null, "pointwise_regularizer": null, "data_format": "channels_last", "bias_regularizer": null, "filters": 728, "pointwise_initializer": {"config": {"scale": 1.0, "mode": "fan_avg", "seed": null, "distribution": "uniform"}, "class_name": "VarianceScaling"}, "bias_constraint": null, "name": "block7_sepconv2", "pointwise_constraint": null, "activation": "linear", "bias_initializer": {"config": {}, "class_name": "Zeros"}, "depthwise_constraint": null, "dilation_rate": [1, 1]}, "inbound_nodes": [[["block7_sepconv2_act", 0, 0, {}]]], "class_name": "SeparableConv2D"}, {"name": "block7_sepconv2_bn", "config": {"beta_constraint": null, "gamma_constraint": null, "scale": true, "trainable": true, "momentum": 0.99, "moving_variance_initializer": {"config": {}, "class_name": "Ones"}, "name": "block7_sepconv2_bn", "axis": -1, "gamma_regularizer": null, "epsilon": 0.001, "gamma_initializer": {"config": {}, "class_name": "Ones"}, "beta_regularizer": null, "center": true, "moving_mean_initializer": {"config": {}, "class_name": "Zeros"}, "beta_initializer": {"config": {}, "class_name": "Zeros"}}, "inbound_nodes": [[["block7_sepconv2", 0, 0, {}]]], "class_name": "BatchNormalization"}, {"name": "block7_sepconv3_act", "config": {"name": "block7_sepconv3_act", "trainable": true, "activation": "relu"}, "inbound_nodes": [[["block7_sepconv2_bn", 0, 0, {}]]], "class_name": "Activation"}, {"name": "block7_sepconv3", "config": {"use_bias": false, "padding": "same", "trainable": true, "depthwise_initializer": {"config": {"scale": 1.0, "mode": "fan_avg", "seed": null, "distribution": "uniform"}, "class_name": "VarianceScaling"}, "strides": [1, 1], "kernel_size": [3, 3], "depthwise_regularizer": null, "depth_multiplier": 1, "activity_regularizer": null, "pointwise_regularizer": null, "data_format": "channels_last", "bias_regularizer": null, "filters": 728, "pointwise_initializer": {"config": {"scale": 1.0, "mode": "fan_avg", "seed": null, "distribution": "uniform"}, "class_name": "VarianceScaling"}, "bias_constraint": null, "name": "block7_sepconv3", "pointwise_constraint": null, "activation": "linear", "bias_initializer": {"config": {}, "class_name": "Zeros"}, "depthwise_constraint": null, "dilation_rate": [1, 1]}, "inbound_nodes": [[["block7_sepconv3_act", 0, 0, {}]]], "class_name": "SeparableConv2D"}, {"name": "block7_sepconv3_bn", "config": {"beta_constraint": null, "gamma_constraint": null, "scale": true, "trainable": true, "momentum": 0.99, "moving_variance_initializer": {"config": {}, "class_name": "Ones"}, "name": "block7_sepconv3_bn", "axis": -1, "gamma_regularizer": null, "epsilon": 0.001, "gamma_initializer": {"config": {}, "class_name": "Ones"}, "beta_regularizer": null, "center": true, "moving_mean_initializer": {"config": {}, "class_name": "Zeros"}, "beta_initializer": {"config": {}, "class_name": "Zeros"}}, "inbound_nodes": [[["block7_sepconv3", 0, 0, {}]]], "class_name": "BatchNormalization"}, {"name": "add_6", "config": {"name": "add_6", "trainable": true}, "inbound_nodes": [[["block7_sepconv3_bn", 0, 0, {}], ["add_5", 0, 0, {}]]], "class_name": "Add"}, {"name": "block8_sepconv1_act", "config": {"name": "block8_sepconv1_act", "trainable": true, "activation": "relu"}, "inbound_nodes": [[["add_6", 0, 0, {}]]], "class_name": "Activation"}, {"name": "block8_sepconv1", "config": {"use_bias": false, "padding": "same", "trainable": true, "depthwise_initializer": {"config": {"scale": 1.0, "mode": "fan_avg", "seed": null, "distribution": "uniform"}, "class_name": "VarianceScaling"}, "strides": [1, 1], "kernel_size": [3, 3], "depthwise_regularizer": null, "depth_multiplier": 1, "activity_regularizer": null, "pointwise_regularizer": null, "data_format": "channels_last", "bias_regularizer": null, "filters": 728, "pointwise_initializer": {"config": {"scale": 1.0, "mode": "fan_avg", "seed": null, "distribution": "uniform"}, "class_name": "VarianceScaling"}, "bias_constraint": null, "name": "block8_sepconv1", "pointwise_constraint": null, "activation": "linear", "bias_initializer": {"config": {}, "class_name": "Zeros"}, "depthwise_constraint": null, "dilation_rate": [1, 1]}, "inbound_nodes": [[["block8_sepconv1_act", 0, 0, {}]]], "class_name": "SeparableConv2D"}, {"name": "block8_sepconv1_bn", "config": {"beta_constraint": null, "gamma_constraint": null, "scale": true, "trainable": true, "momentum": 0.99, "moving_variance_initializer": {"config": {}, "class_name": "Ones"}, "name": "block8_sepconv1_bn", "axis": -1, "gamma_regularizer": null, "epsilon": 0.001, "gamma_initializer": {"config": {}, "class_name": "Ones"}, "beta_regularizer": null, "center": true, "moving_mean_initializer": {"config": {}, "class_name": "Zeros"}, "beta_initializer": {"config": {}, "class_name": "Zeros"}}, "inbound_nodes": [[["block8_sepconv1", 0, 0, {}]]], "class_name": "BatchNormalization"}, {"name": "block8_sepconv2_act", "config": {"name": "block8_sepconv2_act", "trainable": true, "activation": "relu"}, "inbound_nodes": [[["block8_sepconv1_bn", 0, 0, {}]]], "class_name": "Activation"}, {"name": "block8_sepconv2", "config": {"use_bias": false, "padding": "same", "trainable": true, "depthwise_initializer": {"config": {"scale": 1.0, "mode": "fan_avg", "seed": null, "distribution": "uniform"}, "class_name": "VarianceScaling"}, "strides": [1, 1], "kernel_size": [3, 3], "depthwise_regularizer": null, "depth_multiplier": 1, "activity_regularizer": null, "pointwise_regularizer": null, "data_format": "channels_last", "bias_regularizer": null, "filters": 728, "pointwise_initializer": {"config": {"scale": 1.0, "mode": "fan_avg", "seed": null, "distribution": "uniform"}, "class_name": "VarianceScaling"}, "bias_constraint": null, "name": "block8_sepconv2", "pointwise_constraint": null, "activation": "linear", "bias_initializer": {"config": {}, "class_name": "Zeros"}, "depthwise_constraint": null, "dilation_rate": [1, 1]}, "inbound_nodes": [[["block8_sepconv2_act", 0, 0, {}]]], "class_name": "SeparableConv2D"}, {"name": "block8_sepconv2_bn", "config": {"beta_constraint": null, "gamma_constraint": null, "scale": true, "trainable": true, "momentum": 0.99, "moving_variance_initializer": {"config": {}, "class_name": "Ones"}, "name": "block8_sepconv2_bn", "axis": -1, "gamma_regularizer": null, "epsilon": 0.001, "gamma_initializer": {"config": {}, "class_name": "Ones"}, "beta_regularizer": null, "center": true, "moving_mean_initializer": {"config": {}, "class_name": "Zeros"}, "beta_initializer": {"config": {}, "class_name": "Zeros"}}, "inbound_nodes": [[["block8_sepconv2", 0, 0, {}]]], "class_name": "BatchNormalization"}, {"name": "block8_sepconv3_act", "config": {"name": "block8_sepconv3_act", "trainable": true, "activation": "relu"}, "inbound_nodes": [[["block8_sepconv2_bn", 0, 0, {}]]], "class_name": "Activation"}, {"name": "block8_sepconv3", "config": {"use_bias": false, "padding": "same", "trainable": true, "depthwise_initializer": {"config": {"scale": 1.0, "mode": "fan_avg", "seed": null, "distribution": "uniform"}, "class_name": "VarianceScaling"}, "strides": [1, 1], "kernel_size": [3, 3], "depthwise_regularizer": null, "depth_multiplier": 1, "activity_regularizer": null, "pointwise_regularizer": null, "data_format": "channels_last", "bias_regularizer": null, "filters": 728, "pointwise_initializer": {"config": {"scale": 1.0, "mode": "fan_avg", "seed": null, "distribution": "uniform"}, "class_name": "VarianceScaling"}, "bias_constraint": null, "name": "block8_sepconv3", "pointwise_constraint": null, "activation": "linear", "bias_initializer": {"config": {}, "class_name": "Zeros"}, "depthwise_constraint": null, "dilation_rate": [1, 1]}, "inbound_nodes": [[["block8_sepconv3_act", 0, 0, {}]]], "class_name": "SeparableConv2D"}, {"name": "block8_sepconv3_bn", "config": {"beta_constraint": null, "gamma_constraint": null, "scale": true, "trainable": true, "momentum": 0.99, "moving_variance_initializer": {"config": {}, "class_name": "Ones"}, "name": "block8_sepconv3_bn", "axis": -1, "gamma_regularizer": null, "epsilon": 0.001, "gamma_initializer": {"config": {}, "class_name": "Ones"}, "beta_regularizer": null, "center": true, "moving_mean_initializer": {"config": {}, "class_name": "Zeros"}, "beta_initializer": {"config": {}, "class_name": "Zeros"}}, "inbound_nodes": [[["block8_sepconv3", 0, 0, {}]]], "class_name": "BatchNormalization"}, {"name": "add_7", "config": {"name": "add_7", "trainable": true}, "inbound_nodes": [[["block8_sepconv3_bn", 0, 0, {}], ["add_6", 0, 0, {}]]], "class_name": "Add"}, {"name": "block9_sepconv1_act", "config": {"name": "block9_sepconv1_act", "trainable": true, "activation": "relu"}, "inbound_nodes": [[["add_7", 0, 0, {}]]], "class_name": "Activation"}, {"name": "block9_sepconv1", "config": {"use_bias": false, "padding": "same", "trainable": true, "depthwise_initializer": {"config": {"scale": 1.0, "mode": "fan_avg", "seed": null, "distribution": "uniform"}, "class_name": "VarianceScaling"}, "strides": [1, 1], "kernel_size": [3, 3], "depthwise_regularizer": null, "depth_multiplier": 1, "activity_regularizer": null, "pointwise_regularizer": null, "data_format": "channels_last", "bias_regularizer": null, "filters": 728, "pointwise_initializer": {"config": {"scale": 1.0, "mode": "fan_avg", "seed": null, "distribution": "uniform"}, "class_name": "VarianceScaling"}, "bias_constraint": null, "name": "block9_sepconv1", "pointwise_constraint": null, "activation": "linear", "bias_initializer": {"config": {}, "class_name": "Zeros"}, "depthwise_constraint": null, "dilation_rate": [1, 1]}, "inbound_nodes": [[["block9_sepconv1_act", 0, 0, {}]]], "class_name": "SeparableConv2D"}, {"name": "block9_sepconv1_bn", "config": {"beta_constraint": null, "gamma_constraint": null, "scale": true, "trainable": true, "momentum": 0.99, "moving_variance_initializer": {"config": {}, "class_name": "Ones"}, "name": "block9_sepconv1_bn", "axis": -1, "gamma_regularizer": null, "epsilon": 0.001, "gamma_initializer": {"config": {}, "class_name": "Ones"}, "beta_regularizer": null, "center": true, "moving_mean_initializer": {"config": {}, "class_name": "Zeros"}, "beta_initializer": {"config": {}, "class_name": "Zeros"}}, "inbound_nodes": [[["block9_sepconv1", 0, 0, {}]]], "class_name": "BatchNormalization"}, {"name": "block9_sepconv2_act", "config": {"name": "block9_sepconv2_act", "trainable": true, "activation": "relu"}, "inbound_nodes": [[["block9_sepconv1_bn", 0, 0, {}]]], "class_name": "Activation"}, {"name": "block9_sepconv2", "config": {"use_bias": false, "padding": "same", "trainable": true, "depthwise_initializer": {"config": {"scale": 1.0, "mode": "fan_avg", "seed": null, "distribution": "uniform"}, "class_name": "VarianceScaling"}, "strides": [1, 1], "kernel_size": [3, 3], "depthwise_regularizer": null, "depth_multiplier": 1, "activity_regularizer": null, "pointwise_regularizer": null, "data_format": "channels_last", "bias_regularizer": null, "filters": 728, "pointwise_initializer": {"config": {"scale": 1.0, "mode": "fan_avg", "seed": null, "distribution": "uniform"}, "class_name": "VarianceScaling"}, "bias_constraint": null, "name": "block9_sepconv2", "pointwise_constraint": null, "activation": "linear", "bias_initializer": {"config": {}, "class_name": "Zeros"}, "depthwise_constraint": null, "dilation_rate": [1, 1]}, "inbound_nodes": [[["block9_sepconv2_act", 0, 0, {}]]], "class_name": "SeparableConv2D"}, {"name": "block9_sepconv2_bn", "config": {"beta_constraint": null, "gamma_constraint": null, "scale": true, "trainable": true, "momentum": 0.99, "moving_variance_initializer": {"config": {}, "class_name": "Ones"}, "name": "block9_sepconv2_bn", "axis": -1, "gamma_regularizer": null, "epsilon": 0.001, "gamma_initializer": {"config": {}, "class_name": "Ones"}, "beta_regularizer": null, "center": true, "moving_mean_initializer": {"config": {}, "class_name": "Zeros"}, "beta_initializer": {"config": {}, "class_name": "Zeros"}}, "inbound_nodes": [[["block9_sepconv2", 0, 0, {}]]], "class_name": "BatchNormalization"}, {"name": "block9_sepconv3_act", "config": {"name": "block9_sepconv3_act", "trainable": true, "activation": "relu"}, "inbound_nodes": [[["block9_sepconv2_bn", 0, 0, {}]]], "class_name": "Activation"}, {"name": "block9_sepconv3", "config": {"use_bias": false, "padding": "same", "trainable": true, "depthwise_initializer": {"config": {"scale": 1.0, "mode": "fan_avg", "seed": null, "distribution": "uniform"}, "class_name": "VarianceScaling"}, "strides": [1, 1], "kernel_size": [3, 3], "depthwise_regularizer": null, "depth_multiplier": 1, "activity_regularizer": null, "pointwise_regularizer": null, "data_format": "channels_last", "bias_regularizer": null, "filters": 728, "pointwise_initializer": {"config": {"scale": 1.0, "mode": "fan_avg", "seed": null, "distribution": "uniform"}, "class_name": "VarianceScaling"}, "bias_constraint": null, "name": "block9_sepconv3", "pointwise_constraint": null, "activation": "linear", "bias_initializer": {"config": {}, "class_name": "Zeros"}, "depthwise_constraint": null, "dilation_rate": [1, 1]}, "inbound_nodes": [[["block9_sepconv3_act", 0, 0, {}]]], "class_name": "SeparableConv2D"}, {"name": "block9_sepconv3_bn", "config": {"beta_constraint": null, "gamma_constraint": null, "scale": true, "trainable": true, "momentum": 0.99, "moving_variance_initializer": {"config": {}, "class_name": "Ones"}, "name": "block9_sepconv3_bn", "axis": -1, "gamma_regularizer": null, "epsilon": 0.001, "gamma_initializer": {"config": {}, "class_name": "Ones"}, "beta_regularizer": null, "center": true, "moving_mean_initializer": {"config": {}, "class_name": "Zeros"}, "beta_initializer": {"config": {}, "class_name": "Zeros"}}, "inbound_nodes": [[["block9_sepconv3", 0, 0, {}]]], "class_name": "BatchNormalization"}, {"name": "add_8", "config": {"name": "add_8", "trainable": true}, "inbound_nodes": [[["block9_sepconv3_bn", 0, 0, {}], ["add_7", 0, 0, {}]]], "class_name": "Add"}, {"name": "block10_sepconv1_act", "config": {"name": "block10_sepconv1_act", "trainable": true, "activation": "relu"}, "inbound_nodes": [[["add_8", 0, 0, {}]]], "class_name": "Activation"}, {"name": "block10_sepconv1", "config": {"use_bias": false, "padding": "same", "trainable": true, "depthwise_initializer": {"config": {"scale": 1.0, "mode": "fan_avg", "seed": null, "distribution": "uniform"}, "class_name": "VarianceScaling"}, "strides": [1, 1], "kernel_size": [3, 3], "depthwise_regularizer": null, "depth_multiplier": 1, "activity_regularizer": null, "pointwise_regularizer": null, "data_format": "channels_last", "bias_regularizer": null, "filters": 728, "pointwise_initializer": {"config": {"scale": 1.0, "mode": "fan_avg", "seed": null, "distribution": "uniform"}, "class_name": "VarianceScaling"}, "bias_constraint": null, "name": "block10_sepconv1", "pointwise_constraint": null, "activation": "linear", "bias_initializer": {"config": {}, "class_name": "Zeros"}, "depthwise_constraint": null, "dilation_rate": [1, 1]}, "inbound_nodes": [[["block10_sepconv1_act", 0, 0, {}]]], "class_name": "SeparableConv2D"}, {"name": "block10_sepconv1_bn", "config": {"beta_constraint": null, "gamma_constraint": null, "scale": true, "trainable": true, "momentum": 0.99, "moving_variance_initializer": {"config": {}, "class_name": "Ones"}, "name": "block10_sepconv1_bn", "axis": -1, "gamma_regularizer": null, "epsilon": 0.001, "gamma_initializer": {"config": {}, "class_name": "Ones"}, "beta_regularizer": null, "center": true, "moving_mean_initializer": {"config": {}, "class_name": "Zeros"}, "beta_initializer": {"config": {}, "class_name": "Zeros"}}, "inbound_nodes": [[["block10_sepconv1", 0, 0, {}]]], "class_name": "BatchNormalization"}, {"name": "block10_sepconv2_act", "config": {"name": "block10_sepconv2_act", "trainable": true, "activation": "relu"}, "inbound_nodes": [[["block10_sepconv1_bn", 0, 0, {}]]], "class_name": "Activation"}, {"name": "block10_sepconv2", "config": {"use_bias": false, "padding": "same", "trainable": true, "depthwise_initializer": {"config": {"scale": 1.0, "mode": "fan_avg", "seed": null, "distribution": "uniform"}, "class_name": "VarianceScaling"}, "strides": [1, 1], "kernel_size": [3, 3], "depthwise_regularizer": null, "depth_multiplier": 1, "activity_regularizer": null, "pointwise_regularizer": null, "data_format": "channels_last", "bias_regularizer": null, "filters": 728, "pointwise_initializer": {"config": {"scale": 1.0, "mode": "fan_avg", "seed": null, "distribution": "uniform"}, "class_name": "VarianceScaling"}, "bias_constraint": null, "name": "block10_sepconv2", "pointwise_constraint": null, "activation": "linear", "bias_initializer": {"config": {}, "class_name": "Zeros"}, "depthwise_constraint": null, "dilation_rate": [1, 1]}, "inbound_nodes": [[["block10_sepconv2_act", 0, 0, {}]]], "class_name": "SeparableConv2D"}, {"name": "block10_sepconv2_bn", "config": {"beta_constraint": null, "gamma_constraint": null, "scale": true, "trainable": true, "momentum": 0.99, "moving_variance_initializer": {"config": {}, "class_name": "Ones"}, "name": "block10_sepconv2_bn", "axis": -1, "gamma_regularizer": null, "epsilon": 0.001, "gamma_initializer": {"config": {}, "class_name": "Ones"}, "beta_regularizer": null, "center": true, "moving_mean_initializer": {"config": {}, "class_name": "Zeros"}, "beta_initializer": {"config": {}, "class_name": "Zeros"}}, "inbound_nodes": [[["block10_sepconv2", 0, 0, {}]]], "class_name": "BatchNormalization"}, {"name": "block10_sepconv3_act", "config": {"name": "block10_sepconv3_act", "trainable": true, "activation": "relu"}, "inbound_nodes": [[["block10_sepconv2_bn", 0, 0, {}]]], "class_name": "Activation"}, {"name": "block10_sepconv3", "config": {"use_bias": false, "padding": "same", "trainable": true, "depthwise_initializer": {"config": {"scale": 1.0, "mode": "fan_avg", "seed": null, "distribution": "uniform"}, "class_name": "VarianceScaling"}, "strides": [1, 1], "kernel_size": [3, 3], "depthwise_regularizer": null, "depth_multiplier": 1, "activity_regularizer": null, "pointwise_regularizer": null, "data_format": "channels_last", "bias_regularizer": null, "filters": 728, "pointwise_initializer": {"config": {"scale": 1.0, "mode": "fan_avg", "seed": null, "distribution": "uniform"}, "class_name": "VarianceScaling"}, "bias_constraint": null, "name": "block10_sepconv3", "pointwise_constraint": null, "activation": "linear", "bias_initializer": {"config": {}, "class_name": "Zeros"}, "depthwise_constraint": null, "dilation_rate": [1, 1]}, "inbound_nodes": [[["block10_sepconv3_act", 0, 0, {}]]], "class_name": "SeparableConv2D"}, {"name": "block10_sepconv3_bn", "config": {"beta_constraint": null, "gamma_constraint": null, "scale": true, "trainable": true, "momentum": 0.99, "moving_variance_initializer": {"config": {}, "class_name": "Ones"}, "name": "block10_sepconv3_bn", "axis": -1, "gamma_regularizer": null, "epsilon": 0.001, "gamma_initializer": {"config": {}, "class_name": "Ones"}, "beta_regularizer": null, "center": true, "moving_mean_initializer": {"config": {}, "class_name": "Zeros"}, "beta_initializer": {"config": {}, "class_name": "Zeros"}}, "inbound_nodes": [[["block10_sepconv3", 0, 0, {}]]], "class_name": "BatchNormalization"}, {"name": "add_9", "config": {"name": "add_9", "trainable": true}, "inbound_nodes": [[["block10_sepconv3_bn", 0, 0, {}], ["add_8", 0, 0, {}]]], "class_name": "Add"}, {"name": "block11_sepconv1_act", "config": {"name": "block11_sepconv1_act", "trainable": true, "activation": "relu"}, "inbound_nodes": [[["add_9", 0, 0, {}]]], "class_name": "Activation"}, {"name": "block11_sepconv1", "config": {"use_bias": false, "padding": "same", "trainable": true, "depthwise_initializer": {"config": {"scale": 1.0, "mode": "fan_avg", "seed": null, "distribution": "uniform"}, "class_name": "VarianceScaling"}, "strides": [1, 1], "kernel_size": [3, 3], "depthwise_regularizer": null, "depth_multiplier": 1, "activity_regularizer": null, "pointwise_regularizer": null, "data_format": "channels_last", "bias_regularizer": null, "filters": 728, "pointwise_initializer": {"config": {"scale": 1.0, "mode": "fan_avg", "seed": null, "distribution": "uniform"}, "class_name": "VarianceScaling"}, "bias_constraint": null, "name": "block11_sepconv1", "pointwise_constraint": null, "activation": "linear", "bias_initializer": {"config": {}, "class_name": "Zeros"}, "depthwise_constraint": null, "dilation_rate": [1, 1]}, "inbound_nodes": [[["block11_sepconv1_act", 0, 0, {}]]], "class_name": "SeparableConv2D"}, {"name": "block11_sepconv1_bn", "config": {"beta_constraint": null, "gamma_constraint": null, "scale": true, "trainable": true, "momentum": 0.99, "moving_variance_initializer": {"config": {}, "class_name": "Ones"}, "name": "block11_sepconv1_bn", "axis": -1, "gamma_regularizer": null, "epsilon": 0.001, "gamma_initializer": {"config": {}, "class_name": "Ones"}, "beta_regularizer": null, "center": true, "moving_mean_initializer": {"config": {}, "class_name": "Zeros"}, "beta_initializer": {"config": {}, "class_name": "Zeros"}}, "inbound_nodes": [[["block11_sepconv1", 0, 0, {}]]], "class_name": "BatchNormalization"}, {"name": "block11_sepconv2_act", "config": {"name": "block11_sepconv2_act", "trainable": true, "activation": "relu"}, "inbound_nodes": [[["block11_sepconv1_bn", 0, 0, {}]]], "class_name": "Activation"}, {"name": "block11_sepconv2", "config": {"use_bias": false, "padding": "same", "trainable": true, "depthwise_initializer": {"config": {"scale": 1.0, "mode": "fan_avg", "seed": null, "distribution": "uniform"}, "class_name": "VarianceScaling"}, "strides": [1, 1], "kernel_size": [3, 3], "depthwise_regularizer": null, "depth_multiplier": 1, "activity_regularizer": null, "pointwise_regularizer": null, "data_format": "channels_last", "bias_regularizer": null, "filters": 728, "pointwise_initializer": {"config": {"scale": 1.0, "mode": "fan_avg", "seed": null, "distribution": "uniform"}, "class_name": "VarianceScaling"}, "bias_constraint": null, "name": "block11_sepconv2", "pointwise_constraint": null, "activation": "linear", "bias_initializer": {"config": {}, "class_name": "Zeros"}, "depthwise_constraint": null, "dilation_rate": [1, 1]}, "inbound_nodes": [[["block11_sepconv2_act", 0, 0, {}]]], "class_name": "SeparableConv2D"}, {"name": "block11_sepconv2_bn", "config": {"beta_constraint": null, "gamma_constraint": null, "scale": true, "trainable": true, "momentum": 0.99, "moving_variance_initializer": {"config": {}, "class_name": "Ones"}, "name": "block11_sepconv2_bn", "axis": -1, "gamma_regularizer": null, "epsilon": 0.001, "gamma_initializer": {"config": {}, "class_name": "Ones"}, "beta_regularizer": null, "center": true, "moving_mean_initializer": {"config": {}, "class_name": "Zeros"}, "beta_initializer": {"config": {}, "class_name": "Zeros"}}, "inbound_nodes": [[["block11_sepconv2", 0, 0, {}]]], "class_name": "BatchNormalization"}, {"name": "block11_sepconv3_act", "config": {"name": "block11_sepconv3_act", "trainable": true, "activation": "relu"}, "inbound_nodes": [[["block11_sepconv2_bn", 0, 0, {}]]], "class_name": "Activation"}, {"name": "block11_sepconv3", "config": {"use_bias": false, "padding": "same", "trainable": true, "depthwise_initializer": {"config": {"scale": 1.0, "mode": "fan_avg", "seed": null, "distribution": "uniform"}, "class_name": "VarianceScaling"}, "strides": [1, 1], "kernel_size": [3, 3], "depthwise_regularizer": null, "depth_multiplier": 1, "activity_regularizer": null, "pointwise_regularizer": null, "data_format": "channels_last", "bias_regularizer": null, "filters": 728, "pointwise_initializer": {"config": {"scale": 1.0, "mode": "fan_avg", "seed": null, "distribution": "uniform"}, "class_name": "VarianceScaling"}, "bias_constraint": null, "name": "block11_sepconv3", "pointwise_constraint": null, "activation": "linear", "bias_initializer": {"config": {}, "class_name": "Zeros"}, "depthwise_constraint": null, "dilation_rate": [1, 1]}, "inbound_nodes": [[["block11_sepconv3_act", 0, 0, {}]]], "class_name": "SeparableConv2D"}, {"name": "block11_sepconv3_bn", "config": {"beta_constraint": null, "gamma_constraint": null, "scale": true, "trainable": true, "momentum": 0.99, "moving_variance_initializer": {"config": {}, "class_name": "Ones"}, "name": "block11_sepconv3_bn", "axis": -1, "gamma_regularizer": null, "epsilon": 0.001, "gamma_initializer": {"config": {}, "class_name": "Ones"}, "beta_regularizer": null, "center": true, "moving_mean_initializer": {"config": {}, "class_name": "Zeros"}, "beta_initializer": {"config": {}, "class_name": "Zeros"}}, "inbound_nodes": [[["block11_sepconv3", 0, 0, {}]]], "class_name": "BatchNormalization"}, {"name": "add_10", "config": {"name": "add_10", "trainable": true}, "inbound_nodes": [[["block11_sepconv3_bn", 0, 0, {}], ["add_9", 0, 0, {}]]], "class_name": "Add"}, {"name": "block12_sepconv1_act", "config": {"name": "block12_sepconv1_act", "trainable": true, "activation": "relu"}, "inbound_nodes": [[["add_10", 0, 0, {}]]], "class_name": "Activation"}, {"name": "block12_sepconv1", "config": {"use_bias": false, "padding": "same", "trainable": true, "depthwise_initializer": {"config": {"scale": 1.0, "mode": "fan_avg", "seed": null, "distribution": "uniform"}, "class_name": "VarianceScaling"}, "strides": [1, 1], "kernel_size": [3, 3], "depthwise_regularizer": null, "depth_multiplier": 1, "activity_regularizer": null, "pointwise_regularizer": null, "data_format": "channels_last", "bias_regularizer": null, "filters": 728, "pointwise_initializer": {"config": {"scale": 1.0, "mode": "fan_avg", "seed": null, "distribution": "uniform"}, "class_name": "VarianceScaling"}, "bias_constraint": null, "name": "block12_sepconv1", "pointwise_constraint": null, "activation": "linear", "bias_initializer": {"config": {}, "class_name": "Zeros"}, "depthwise_constraint": null, "dilation_rate": [1, 1]}, "inbound_nodes": [[["block12_sepconv1_act", 0, 0, {}]]], "class_name": "SeparableConv2D"}, {"name": "block12_sepconv1_bn", "config": {"beta_constraint": null, "gamma_constraint": null, "scale": true, "trainable": true, "momentum": 0.99, "moving_variance_initializer": {"config": {}, "class_name": "Ones"}, "name": "block12_sepconv1_bn", "axis": -1, "gamma_regularizer": null, "epsilon": 0.001, "gamma_initializer": {"config": {}, "class_name": "Ones"}, "beta_regularizer": null, "center": true, "moving_mean_initializer": {"config": {}, "class_name": "Zeros"}, "beta_initializer": {"config": {}, "class_name": "Zeros"}}, "inbound_nodes": [[["block12_sepconv1", 0, 0, {}]]], "class_name": "BatchNormalization"}, {"name": "block12_sepconv2_act", "config": {"name": "block12_sepconv2_act", "trainable": true, "activation": "relu"}, "inbound_nodes": [[["block12_sepconv1_bn", 0, 0, {}]]], "class_name": "Activation"}, {"name": "block12_sepconv2", "config": {"use_bias": false, "padding": "same", "trainable": true, "depthwise_initializer": {"config": {"scale": 1.0, "mode": "fan_avg", "seed": null, "distribution": "uniform"}, "class_name": "VarianceScaling"}, "strides": [1, 1], "kernel_size": [3, 3], "depthwise_regularizer": null, "depth_multiplier": 1, "activity_regularizer": null, "pointwise_regularizer": null, "data_format": "channels_last", "bias_regularizer": null, "filters": 728, "pointwise_initializer": {"config": {"scale": 1.0, "mode": "fan_avg", "seed": null, "distribution": "uniform"}, "class_name": "VarianceScaling"}, "bias_constraint": null, "name": "block12_sepconv2", "pointwise_constraint": null, "activation": "linear", "bias_initializer": {"config": {}, "class_name": "Zeros"}, "depthwise_constraint": null, "dilation_rate": [1, 1]}, "inbound_nodes": [[["block12_sepconv2_act", 0, 0, {}]]], "class_name": "SeparableConv2D"}, {"name": "block12_sepconv2_bn", "config": {"beta_constraint": null, "gamma_constraint": null, "scale": true, "trainable": true, "momentum": 0.99, "moving_variance_initializer": {"config": {}, "class_name": "Ones"}, "name": "block12_sepconv2_bn", "axis": -1, "gamma_regularizer": null, "epsilon": 0.001, "gamma_initializer": {"config": {}, "class_name": "Ones"}, "beta_regularizer": null, "center": true, "moving_mean_initializer": {"config": {}, "class_name": "Zeros"}, "beta_initializer": {"config": {}, "class_name": "Zeros"}}, "inbound_nodes": [[["block12_sepconv2", 0, 0, {}]]], "class_name": "BatchNormalization"}, {"name": "block12_sepconv3_act", "config": {"name": "block12_sepconv3_act", "trainable": true, "activation": "relu"}, "inbound_nodes": [[["block12_sepconv2_bn", 0, 0, {}]]], "class_name": "Activation"}, {"name": "block12_sepconv3", "config": {"use_bias": false, "padding": "same", "trainable": true, "depthwise_initializer": {"config": {"scale": 1.0, "mode": "fan_avg", "seed": null, "distribution": "uniform"}, "class_name": "VarianceScaling"}, "strides": [1, 1], "kernel_size": [3, 3], "depthwise_regularizer": null, "depth_multiplier": 1, "activity_regularizer": null, "pointwise_regularizer": null, "data_format": "channels_last", "bias_regularizer": null, "filters": 728, "pointwise_initializer": {"config": {"scale": 1.0, "mode": "fan_avg", "seed": null, "distribution": "uniform"}, "class_name": "VarianceScaling"}, "bias_constraint": null, "name": "block12_sepconv3", "pointwise_constraint": null, "activation": "linear", "bias_initializer": {"config": {}, "class_name": "Zeros"}, "depthwise_constraint": null, "dilation_rate": [1, 1]}, "inbound_nodes": [[["block12_sepconv3_act", 0, 0, {}]]], "class_name": "SeparableConv2D"}, {"name": "block12_sepconv3_bn", "config": {"beta_constraint": null, "gamma_constraint": null, "scale": true, "trainable": true, "momentum": 0.99, "moving_variance_initializer": {"config": {}, "class_name": "Ones"}, "name": "block12_sepconv3_bn", "axis": -1, "gamma_regularizer": null, "epsilon": 0.001, "gamma_initializer": {"config": {}, "class_name": "Ones"}, "beta_regularizer": null, "center": true, "moving_mean_initializer": {"config": {}, "class_name": "Zeros"}, "beta_initializer": {"config": {}, "class_name": "Zeros"}}, "inbound_nodes": [[["block12_sepconv3", 0, 0, {}]]], "class_name": "BatchNormalization"}, {"name": "add_11", "config": {"name": "add_11", "trainable": true}, "inbound_nodes": [[["block12_sepconv3_bn", 0, 0, {}], ["add_10", 0, 0, {}]]], "class_name": "Add"}, {"name": "block13_sepconv1_act", "config": {"name": "block13_sepconv1_act", "trainable": true, "activation": "relu"}, "inbound_nodes": [[["add_11", 0, 0, {}]]], "class_name": "Activation"}, {"name": "block13_sepconv1", "config": {"use_bias": false, "padding": "same", "trainable": true, "depthwise_initializer": {"config": {"scale": 1.0, "mode": "fan_avg", "seed": null, "distribution": "uniform"}, "class_name": "VarianceScaling"}, "strides": [1, 1], "kernel_size": [3, 3], "depthwise_regularizer": null, "depth_multiplier": 1, "activity_regularizer": null, "pointwise_regularizer": null, "data_format": "channels_last", "bias_regularizer": null, "filters": 728, "pointwise_initializer": {"config": {"scale": 1.0, "mode": "fan_avg", "seed": null, "distribution": "uniform"}, "class_name": "VarianceScaling"}, "bias_constraint": null, "name": "block13_sepconv1", "pointwise_constraint": null, "activation": "linear", "bias_initializer": {"config": {}, "class_name": "Zeros"}, "depthwise_constraint": null, "dilation_rate": [1, 1]}, "inbound_nodes": [[["block13_sepconv1_act", 0, 0, {}]]], "class_name": "SeparableConv2D"}, {"name": "block13_sepconv1_bn", "config": {"beta_constraint": null, "gamma_constraint": null, "scale": true, "trainable": true, "momentum": 0.99, "moving_variance_initializer": {"config": {}, "class_name": "Ones"}, "name": "block13_sepconv1_bn", "axis": -1, "gamma_regularizer": null, "epsilon": 0.001, "gamma_initializer": {"config": {}, "class_name": "Ones"}, "beta_regularizer": null, "center": true, "moving_mean_initializer": {"config": {}, "class_name": "Zeros"}, "beta_initializer": {"config": {}, "class_name": "Zeros"}}, "inbound_nodes": [[["block13_sepconv1", 0, 0, {}]]], "class_name": "BatchNormalization"}, {"name": "block13_sepconv2_act", "config": {"name": "block13_sepconv2_act", "trainable": true, "activation": "relu"}, "inbound_nodes": [[["block13_sepconv1_bn", 0, 0, {}]]], "class_name": "Activation"}, {"name": "block13_sepconv2", "config": {"use_bias": false, "padding": "same", "trainable": true, "depthwise_initializer": {"config": {"scale": 1.0, "mode": "fan_avg", "seed": null, "distribution": "uniform"}, "class_name": "VarianceScaling"}, "strides": [1, 1], "kernel_size": [3, 3], "depthwise_regularizer": null, "depth_multiplier": 1, "activity_regularizer": null, "pointwise_regularizer": null, "data_format": "channels_last", "bias_regularizer": null, "filters": 1024, "pointwise_initializer": {"config": {"scale": 1.0, "mode": "fan_avg", "seed": null, "distribution": "uniform"}, "class_name": "VarianceScaling"}, "bias_constraint": null, "name": "block13_sepconv2", "pointwise_constraint": null, "activation": "linear", "bias_initializer": {"config": {}, "class_name": "Zeros"}, "depthwise_constraint": null, "dilation_rate": [1, 1]}, "inbound_nodes": [[["block13_sepconv2_act", 0, 0, {}]]], "class_name": "SeparableConv2D"}, {"name": "block13_sepconv2_bn", "config": {"beta_constraint": null, "gamma_constraint": null, "scale": true, "trainable": true, "momentum": 0.99, "moving_variance_initializer": {"config": {}, "class_name": "Ones"}, "name": "block13_sepconv2_bn", "axis": -1, "gamma_regularizer": null, "epsilon": 0.001, "gamma_initializer": {"config": {}, "class_name": "Ones"}, "beta_regularizer": null, "center": true, "moving_mean_initializer": {"config": {}, "class_name": "Zeros"}, "beta_initializer": {"config": {}, "class_name": "Zeros"}}, "inbound_nodes": [[["block13_sepconv2", 0, 0, {}]]], "class_name": "BatchNormalization"}, {"name": "conv2d_4", "config": {"use_bias": false, "kernel_constraint": null, "trainable": true, "padding": "same", "kernel_size": [1, 1], "name": "conv2d_4", "strides": [2, 2], "activity_regularizer": null, "kernel_regularizer": null, "data_format": "channels_last", "bias_regularizer": null, "filters": 1024, "activation": "linear", "bias_constraint": null, "kernel_initializer": {"config": {"scale": 1.0, "mode": "fan_avg", "seed": null, "distribution": "uniform"}, "class_name": "VarianceScaling"}, "bias_initializer": {"config": {}, "class_name": "Zeros"}, "dilation_rate": [1, 1]}, "inbound_nodes": [[["add_11", 0, 0, {}]]], "class_name": "Conv2D"}, {"name": "block13_pool", "config": {"data_format": "channels_last", "padding": "same", "trainable": true, "strides": [2, 2], "name": "block13_pool", "pool_size": [3, 3]}, "inbound_nodes": [[["block13_sepconv2_bn", 0, 0, {}]]], "class_name": "MaxPooling2D"}, {"name": "batch_normalization_4", "config": {"beta_constraint": null, "gamma_constraint": null, "scale": true, "trainable": true, "momentum": 0.99, "moving_variance_initializer": {"config": {}, "class_name": "Ones"}, "name": "batch_normalization_4", "axis": -1, "gamma_regularizer": null, "epsilon": 0.001, "gamma_initializer": {"config": {}, "class_name": "Ones"}, "beta_regularizer": null, "center": true, "moving_mean_initializer": {"config": {}, "class_name": "Zeros"}, "beta_initializer": {"config": {}, "class_name": "Zeros"}}, "inbound_nodes": [[["conv2d_4", 0, 0, {}]]], "class_name": "BatchNormalization"}, {"name": "add_12", "config": {"name": "add_12", "trainable": true}, "inbound_nodes": [[["block13_pool", 0, 0, {}], ["batch_normalization_4", 0, 0, {}]]], "class_name": "Add"}, {"name": "block14_sepconv1", "config": {"use_bias": false, "padding": "same", "trainable": true, "depthwise_initializer": {"config": {"scale": 1.0, "mode": "fan_avg", "seed": null, "distribution": "uniform"}, "class_name": "VarianceScaling"}, "strides": [1, 1], "kernel_size": [3, 3], "depthwise_regularizer": null, "depth_multiplier": 1, "activity_regularizer": null, "pointwise_regularizer": null, "data_format": "channels_last", "bias_regularizer": null, "filters": 1536, "pointwise_initializer": {"config": {"scale": 1.0, "mode": "fan_avg", "seed": null, "distribution": "uniform"}, "class_name": "VarianceScaling"}, "bias_constraint": null, "name": "block14_sepconv1", "pointwise_constraint": null, "activation": "linear", "bias_initializer": {"config": {}, "class_name": "Zeros"}, "depthwise_constraint": null, "dilation_rate": [1, 1]}, "inbound_nodes": [[["add_12", 0, 0, {}]]], "class_name": "SeparableConv2D"}, {"name": "block14_sepconv1_bn", "config": {"beta_constraint": null, "gamma_constraint": null, "scale": true, "trainable": true, "momentum": 0.99, "moving_variance_initializer": {"config": {}, "class_name": "Ones"}, "name": "block14_sepconv1_bn", "axis": -1, "gamma_regularizer": null, "epsilon": 0.001, "gamma_initializer": {"config": {}, "class_name": "Ones"}, "beta_regularizer": null, "center": true, "moving_mean_initializer": {"config": {}, "class_name": "Zeros"}, "beta_initializer": {"config": {}, "class_name": "Zeros"}}, "inbound_nodes": [[["block14_sepconv1", 0, 0, {}]]], "class_name": "BatchNormalization"}, {"name": "block14_sepconv1_act", "config": {"name": "block14_sepconv1_act", "trainable": true, "activation": "relu"}, "inbound_nodes": [[["block14_sepconv1_bn", 0, 0, {}]]], "class_name": "Activation"}, {"name": "block14_sepconv2", "config": {"use_bias": false, "padding": "same", "trainable": true, "depthwise_initializer": {"config": {"scale": 1.0, "mode": "fan_avg", "seed": null, "distribution": "uniform"}, "class_name": "VarianceScaling"}, "strides": [1, 1], "kernel_size": [3, 3], "depthwise_regularizer": null, "depth_multiplier": 1, "activity_regularizer": null, "pointwise_regularizer": null, "data_format": "channels_last", "bias_regularizer": null, "filters": 2048, "pointwise_initializer": {"config": {"scale": 1.0, "mode": "fan_avg", "seed": null, "distribution": "uniform"}, "class_name": "VarianceScaling"}, "bias_constraint": null, "name": "block14_sepconv2", "pointwise_constraint": null, "activation": "linear", "bias_initializer": {"config": {}, "class_name": "Zeros"}, "depthwise_constraint": null, "dilation_rate": [1, 1]}, "inbound_nodes": [[["block14_sepconv1_act", 0, 0, {}]]], "class_name": "SeparableConv2D"}, {"name": "block14_sepconv2_bn", "config": {"beta_constraint": null, "gamma_constraint": null, "scale": true, "trainable": true, "momentum": 0.99, "moving_variance_initializer": {"config": {}, "class_name": "Ones"}, "name": "block14_sepconv2_bn", "axis": -1, "gamma_regularizer": null, "epsilon": 0.001, "gamma_initializer": {"config": {}, "class_name": "Ones"}, "beta_regularizer": null, "center": true, "moving_mean_initializer": {"config": {}, "class_name": "Zeros"}, "beta_initializer": {"config": {}, "class_name": "Zeros"}}, "inbound_nodes": [[["block14_sepconv2", 0, 0, {}]]], "class_name": "BatchNormalization"}, {"name": "block14_sepconv2_act", "config": {"name": "block14_sepconv2_act", "trainable": true, "activation": "relu"}, "inbound_nodes": [[["block14_sepconv2_bn", 0, 0, {}]]], "class_name": "Activation"}, {"name": "global_average_pooling2d_1", "config": {"data_format": "channels_last", "name": "global_average_pooling2d_1", "trainable": true}, "inbound_nodes": [[["block14_sepconv2_act", 0, 0, {}]]], "class_name": "GlobalAveragePooling2D"}, {"name": "dense_1", "config": {"use_bias": true, "kernel_constraint": null, "trainable": true, "name": "dense_1", "bias_regularizer": null, "kernel_regularizer": null, "activity_regularizer": null, "activation": "relu", "bias_constraint": null, "kernel_initializer": {"config": {"scale": 1.0, "mode": "fan_avg", "seed": null, "distribution": "uniform"}, "class_name": "VarianceScaling"}, "bias_initializer": {"config": {}, "class_name": "Zeros"}, "units": 256}, "inbound_nodes": [[["global_average_pooling2d_1", 0, 0, {}]]], "class_name": "Dense"}, {"name": "dropout_1", "config": {"name": "dropout_1", "trainable": true, "rate": 0.5}, "inbound_nodes": [[["dense_1", 0, 0, {}]]], "class_name": "Dropout"}, {"name": "dense_2", "config": {"use_bias": true, "kernel_constraint": null, "trainable": true, "name": "dense_2", "bias_regularizer": null, "kernel_regularizer": null, "activity_regularizer": null, "activation": "softmax", "bias_constraint": null, "kernel_initializer": {"config": {"scale": 1.0, "mode": "fan_avg", "seed": null, "distribution": "uniform"}, "class_name": "VarianceScaling"}, "bias_initializer": {"config": {}, "class_name": "Zeros"}, "units": 12}, "inbound_nodes": [[["dropout_1", 0, 0, {}]]], "class_name": "Dense"}], "output_layers": [["dense_2", 0, 0]]}, "backend": "tensorflow", "class_name": "Model"}